example_models/cactus/actor_net.pth (torch, 83175 bytes, 6 tensors)

fc1.0.weight f4 [64, 245]
0.038557664 -0.020632062 0.03712478 -0.0301331 -0.0574968 -0.037228364 0.027105177 -0.017038627
-0.039428134 0.046606924 -0.039002895 0.063522086 -0.056944255 0.04487177 -0.0051399637 0.06278241
0.0235165 -0.97453195 -0.022616023 -0.05025841 -0.033739835 -0.013123179 0.04022776 1.2344781
0.0034616326 -1.6379981 -0.022499444 0.05177138 -0.018045744 -0.019169303 0.011629993 0.7465068
-0.047389224 -0.04918664 0.04747595 -0.019134322 -0.034868557 0.050916597 0.03946485 0.022737224
-0.03905748 -0.037064902 -0.03853624 -0.021930285 -0.059443474 -0.01732389 0.015866067 -0.0054610088
-0.03735262 0.01623244 -0.27940318 -0.19306353 -0.5193718 -0.4375521 -0.12837215 -0.1225621
0.1420236 0.048034016 -0.2628445 -0.4519081 -0.37664148 -0.44048536 -0.14021699 0.28869766
0.0868975 0.35409135 -1.534133 -0.39388424 -0.4077662 -0.37566787 0.234362 0.7335703
2.1709335 -0.25881186 -1.9005023 -0.14374529 -0.53882146 0.297506 -0.042904563 0.6350232
0.57602656 -0.07789368 -0.3245406 -0.4848467 0.07382917 0.16217794 0.15491918 0.20904672
0.20823245 0.028761186 -0.07822502 0.25249767 -0.13846867 0.024604535 0.39767575 0.36211538
0.09456807 -0.3273427 -0.06748296 0.15738295 -0.08335245 0.13393947 -0.039837155 -0.09139626
-0.11237909 0.050982296 0.06541768 0.15128763 0.12750612 -0.27675068 -0.058418702 -0.23760124
-0.070803665 0.011732945 -0.06797249 0.44089702 -0.07971566 -0.42516142 -0.22982344 -0.15982395
-0.10069615 -0.83559245 0.03129659 0.67308456 0.12093085 -0.0028727464 -0.17402813 -0.4411439
-0.49018788 -0.41563118 0.24356745 0.13442914 0.011466508 -0.012193422 0.0021151062 -0.2515484
-0.018324202 0.20091856 0.09864077 0.04996209 -0.0012242761 -0.08948294 -0.21118417 -0.15169775
0.2108065 0.16072175 0.24385978 -0.11725154 -0.11116795 0.10807469 0.1293485 0.08673585
-0.17135872 0.07789526 0.1414628 0.15376277 0.041245762 0.051532928 0.0027110637 0.15951431
-0.05969265 0.028841207 0.015343501 0.15714188 -0.19970019 -0.14707722 0.0015648481 0.017478243
0.12837069 0.008666708 0.07850864 -0.047212966 -0.027807215 0.11780747 0.1416951 0.021556778
0.17371765 0.17495655 0.12761906 -0.05660161 -0.057713088 0.10835328 -0.034204416 -0.07314729
-0.07210055 -0.007307955 0.008575658 0.053152923 0.042147942 0.12399777 -0.027262423 -0.0664827
0.18003616 0.11436078 0.02128093 0.050559405 0.050434288 -0.037449505 0.043660272 0.018120255
-0.13959523 0.0046799425 0.006973831 -0.028526183 0.06416114 -0.05667717 0.0878437 -0.09584308
0.11063105 0.1068754 0.19394048 0.008054267 0.15042508 -0.05509755 0.07238851 0.03903319
0.038469452 -0.035712473 0.19413978 0.24861632 -0.06971889 0.23258322 0.15446267 0.10035857
-0.029795527 0.06340472 -0.04569412 -0.13698813 0.06168555 -0.1972265 0.12837194 0.0051114806
0.054157447 0.027988316 -0.13371007 0.15788125 0.056249745 -0.09147376 -0.018133264 0.1632178
0.017891703 0.13000958 0.10483227 -0.06848215 -0.0010752969 -0.0051733674 0.028507108 -0.010361418
0.048780218 -0.047276247 -0.031951506 -0.016036147 -0.04966902 0.028830688 -0.0016277834 -0.006868568
00000000: a4ee 1d3d 9204 a9bc 2710 183d b1d9 f6bc
00000010: c481 6bbd c57c 18bd ad0b de3c 9794 8bbc
00000020: 657f 21bd e7e6 3e3d 80c1 1fbd de17 823d
00000030: 613e 69bd 76cb 373d 246d a8bb 1094 803d
00000040: ada5 c03c ed7a 79bf 3d45 b9bc c3db 4dbd
00000050: c832 0abd 9a02 57bc ddc5 243d 6103 9e3f
00000060: 8fdc 623b eca9 d1bf c150 b8bc 3a0e 543d
00000070: abd4 93bc f108 9dbc ba8b 3e3c 121b 3f3f
00000080: 341b 42bd ee77 49bd 2476 423d 95bf 9cbc
00000090: 55d2 0ebd ec8d 503d e5a5 213d 6a43 ba3c
000000a0: bcfa 1fbd 5ed1 17bd 2dd8 1dbd 24a7 b3bc
000000b0: 007b 73bd d5ea 8dbc 8ef9 813c 43f2 b2bb
000000c0: 10ff 18bd e5f9 843c ef0d 8fbe 72b2 45be
000000d0: 8df5 04bf d406 e0be fd73 03be d701 fbbd
000000e0: a26e 113e 51bf 443d 8e93 86be 8060 e7be
000000f0: 27d7 c0be 4c87 e1be 0b95 0fbe 2ed0 933e
00000100: 51f7 b13d 764b b53e 785e c4bf 32ab c9be
00000110: bbc6 d0be 8a57 c0be 98fc 6f3e 43cb 3b3f
00000120: 93f0 0a40 fd82 84be a943 f3bf f731 13be
00000130: 34f0 09bf b552 983e b2bc 2fbd e190 223f
00000140: 7a76 133f b986 9fbd 2f2a a6be d43d f8be
00000150: bf33 973d f911 263e 22a3 1e3e 5810 563e
00000160: e33a 553e 949c eb3c 7034 a0bd 6047 813e
00000170: bbca 0dbe 738f c93c 289c cb3e 3067 b93e
00000180: e7ac c13d 7699 a7be 8234 8abd ff28 213e
00000190: b0b4 aabd 6e27 093e 492c 23bd f62d bbbd
000001a0: 0227 e6bd d0d2 503d b4f9 853d 25eb 1a3e
000001b0: f790 023e 44b2 8dbe 7348 6fbd bd4d 73be
000001c0: 8301 91bd 8a3b 403c 2935 8bbd 41bd e13e
000001d0: f741 a3bd c2ae d9be d656 6bbe e4a8 23be
000001e0: c839 cebd 63e9 55bf da30 003d 454f 2c3f
000001f0: 98aa f73d b044 3cbb 6e34 32be 9ddd e1be
00000200: e8f9 fabe 9ccd d4be bf69 793e cba7 093e
00000210: 05de 3b3c ebc6 47bc 989d 0a3b f4ca 80be
00000220: a31c 96bc 98bd 4d3e 2c04 ca3d 0ca5 4c3d
00000230: e477 a0ba d542 b7bd aa40 58be a856 1bbe
00000240: a9dd 573e 3e94 243e 61b6 793e 9321 f0bd
00000250: 06ac e3bd 4356 dd3d ef73 043e 91a2 b13d
00000260: a978 2fbe 8d87 9f3d a0db 103e fd73 1d3e
00000270: 51f1 283d 3114 533d 1aac 313b b857 233e
00000280: 4880 74bd 6544 ec3c 4f63 7b3c cde9 203e
00000290: 357e 4cbe 699b 16be 971b cd3a 882e 8f3c
000002a0: 9b73 033e cffe 0d3c 23c9 a03d 6262 41bd
000002b0: f5cb e3bc 0b45 f13d 8518 113e d797 b03c
000002c0: 0ae3 313e cf27 333e 92ae 023e 17d7 67bd
000002d0: 8f64 6cbd 53e8 dd3d ee19 0cbd 3fce 95bd
000002e0: 74a9 93bd 9277 efbb eb80 0c3c e1b6 593d
000002f0: 52a3 2c3d 8bf2 fd3d 7255 dfbc 1528 88bd
00000300: 665b 383e fc35 ea3d 5855 ae3c 6117 4f3d
00000310: 2f94 4e3d a764 19bd 1dd5 323d ee70 943c
00000320: 0df2 0ebe 345a 993b bc84 e43b beaf e9bc
00000330: ea66 833d 5226 68bd 66e7 b33d 6049 c4bd
00000340: 8892 e23d 7de1 da3d 5598 463e 0bf6 033c
00000350: 0809 1a3e f8ad 61bd 6d40 943d 44e1 1f3d
00000360: 2592 1d3d 3e47 12bd 94cc 463e 4795 7e3e
00000370: c7c8 8ebd 4c2a 6e3e 762b 1e3e cb88 cd3d
00000380: c015 f4bc 55da 813d c229 3bbd 9e46 0cbe
00000390: fda9 7c3d bef5 49be ef73 033e 357e a73b
000003a0: 33d4 5d3d c147 e53c 4beb 08be 9fab 213e
000003b0: 2266 663d 9856 bbbd 368c 94bc 9122 273e
000003c0: 9f91 923c 3b21 053e 4db2 d63d 5f40 8cbd
000003d0: faf0 8cba 5a85 a9bb bd87 e93c f0c2 29bc
000003e0: c4cd 473d bda4 41bd 95df 02bd 3d5e 83bc
000003f0: be71 4bbd 562e ec3c 595b d5ba b911 e1bb

fc1.0.bias f4 [64]
-0.07434549 0.0017804431 -0.040899947 -0.007380685 -0.052249353 -0.19168845 0.12125183 0.12179185
-0.31377995 -0.115134045 0.1069408 -0.15301377 -0.12747592 0.1386544 -0.4906873 -0.17555356
0.09441355 -0.31315345 -0.21361294 -0.031840086 -0.037404384 0.104425035 -0.36770946 0.07026583
0.25316423 -0.054840285 0.011146227 0.104290284 0.20999484 -0.39516005 0.14751133 0.008720045
-0.06828939 0.33139783 -0.08480036 -0.22136167 0.06533922 -0.24815935 -0.25742528 -0.11531633
0.11286311 0.055671178 0.13461864 -0.2222234 -0.17464887 -0.20416045 -0.10110574 0.03634795
0.16492733 -0.03185418 -0.0053761355 0.053908344 -0.28159586 0.016951721 -0.04262776 -0.1936712
-0.3609185 -0.033498295 -0.017394723 0.20308968 0.019391958 -0.1290471 0.050311413 -0.28767934
00000000: 7342 98bd c25d e93a b486 27bd acd9 f1bb
00000010: 6b03 56bd fa49 44be e152 f83d 016e f93d
00000020: c4a7 a0be 66cb ebbd c703 db3d a4af 1cbe
00000030: 0c89 02be 6bfb 0d3e 5e3b fbbe 50c4 33be
00000040: e45b c13d a655 a0be 5abd 5abe c06a 02bd
00000050: 5735 19bd cbdc d53d 6a44 bcbe 88e7 8f3d
00000060: be9e 813e 35a0 60bd aa9e 363c 2596 d53d
00000070: e308 573e 6b52 cabe 360d 173e 85de 0e3c
00000080: 4fdb 8bbd faac a93e d0ab adbd a2ac 62be
00000090: 92d0 853d 7c1d 7ebe 3fcd 83be f82a ecbd
000000a0: c624 e73d 7607 643d 78d9 093e 888e 63be
000000b0: 27d7 32be 700f 51be 8710 cfbd 97e1 143d
000000c0: b6e2 283e 8779 02bd 4b2a b0bb ffce 5c3d
000000d0: 552d 90be 56de 8a3c 729a 2ebd be51 46be
000000e0: 4fca b8be 8235 09bd 617f 8ebc bef6 4f3e
000000f0: e2db 9e3c ec24 04be 5713 4e3d b54a 93be

fc1.2.weight f4 [64, 64]
-0.08975868 -0.098240905 0.11288247 -0.25644907 -0.10750515 -0.02656051 -0.005018038 -0.12924434
-0.08757143 -0.21681999 0.14761353 -0.2689415 0.03347177 -0.14427526 -0.060249664 -0.12298789
0.062489394 -0.16314787 0.15405412 -0.13464569 -0.18057169 0.12036572 -0.09816304 -0.12499831
0.15253852 0.021551177 -0.08553549 -0.108544685 0.061431874 -0.2204278 -0.25784978 -0.047575653
0.036507778 0.1220627 -0.18577944 -0.13199928 -0.12448276 -0.08108514 0.07193863 0.046045363
0.008589005 -0.11804326 -0.15436704 0.089198194 0.18111959 -0.21824022 -0.11893432 0.19616273
0.052969422 0.03366972 0.013919355 -0.08528687 0.019065395 -0.20979773 0.06592771 0.06663674
0.022699973 -0.05445744 -0.17739666 0.015198774 0.08498041 -0.07304207 0.052042965 -0.025933877
0.051405825 -0.09898826 0.114720605 0.0781197 -0.16556673 0.055309854 -0.11249626 0.056548152
-0.106553055 -0.03711779 0.07066858 -0.21459027 0.12425794 0.11529955 -0.146601 -0.032537702
-0.09043928 0.025082214 0.006618061 -0.1967809 -0.10757925 0.17241757 -0.05723427 -0.116323516
-0.3418769 -0.07649981 0.43970948 -0.07929089 -0.113156796 0.004423106 -0.045428753 -0.019679759
0.15051617 -0.10773832 0.048672676 -0.18910374 -0.08761123 0.059137948 -0.13704562 0.36481228
0.061256025 0.12194191 0.02086972 -0.0012705749 0.10482582 -0.123464905 -0.08496035 -0.12117596
-0.15389319 -0.054189093 0.16445753 -0.039892793 0.034757912 -0.02700057 -0.02065637 -0.086955756
-0.096047446 -0.068420745 0.06800435 -0.13742356 -0.019282151 -0.012332363 0.053144615 0.07883589
0.028083382 0.11341724 0.011656739 -0.045389034 -0.030024488 -0.036562882 -0.35770166 0.3969389
-0.043307565 -0.041074496 -0.030943194 0.058313724 -0.13263737 -0.12880848 -0.19374213 -0.07209007
-0.21506631 -0.1664366 -0.09233518 -0.26562038 -0.008422924 -0.22651497 -0.3336655 -0.27399245
-0.20775495 0.19110382 -0.09114719 0.33522165 0.20116869 -0.08319419 0.10735861 -0.0344427
0.0662564 0.1272081 -0.26000842 -0.01001665 -0.056392174 -0.11292397 -0.37252086 -0.19398537
-0.10266795 0.04931841 0.27616787 0.07002065 -0.059751574 -0.16482997 -0.14675957 0.016498063
-0.1377957 -0.41678518 0.24589635 -0.18195066 -0.18121822 -0.00087902416 -0.21499261 -0.27660066
-0.25476244 -0.106404506 0.04008725 -0.028550722 -0.1942308 -0.22580722 -0.2408207 -0.1444932
-0.25733405 0.11883119 -0.0930125 -0.34374884 -0.095209554 0.08672521 -0.048494447 0.00043636278
-0.22196122 0.26548985 0.0942521 0.10651754 0.108004004 -0.044273864 -0.0358055 0.1377583
0.012755481 -0.24641736 0.028333776 -0.1535234 0.15042296 -0.10566028 -0.20513731 0.0315345
0.1373673 -0.01093605 0.042552426 -0.38453612 -0.024456399 -0.027043194 -0.00472248 -0.22860779
0.14998756 0.0942273 -0.019103996 0.13107263 -0.16525108 0.057193384 0.2076622 -0.010543147
0.14391431 -0.27520165 -0.016315807 0.11917365 -0.0797018 0.14711946 -0.05486224 0.6616082
-0.12540746 -0.3913167 0.08148143 -0.06984234 -0.012198256 -0.12635364 -0.26670927 0.24897449
-0.008052141 0.8158312 -0.19705097 0.13385534 -0.09347348 0.15865512 -0.10359716 -0.006972708
00000000: 66d3 b7bd 8732 c9bd ed2e e73d 4b4d 83be
00000010: a92b dcbd 6d95 d9bc 5b6e a4bb a158 04be
00000020: a658 b3bd 0f06 5ebe 0028 173e b3b2 89be
00000030: b219 093d e5bc 13be 5ac8 76bd 13e1 fbbd
00000040: e1f4 7f3d 3c10 27be 5dc0 1d3e 8fe0 09be
00000050: c9e7 38be 4d82 f63d b409 c9bd 1dff ffbd
00000060: 0f33 1c3e 188c b03c 3b2d afbd ad4c debd
00000070: fd9f 7b3d d3b7 61be e304 84be b0de 42bd
00000080: 2e89 153d 02fc f93d f73c 3ebe d22a 07be
00000090: d1f0 febd f70f a6bd 8f54 933d 109a 3c3d
000000a0: e6b8 0c3c aac0 f1bd 6512 1ebe 8bad b63d
000000b0: 6a77 393e 5d7a 5fbe d693 f3bd e2de 483e
000000c0: 77f6 583d 43e9 093d 020e 643c e2aa aebd
000000d0: 082f 9c3c 37d5 56be 1b05 873d d878 883d
000000e0: 4bf5 b93c c40e 5fbd 78a7 35be 4704 793c
000000f0: 360a ae3d 1597 95bd 012b 553d 4873 d4bc
00000100: ea8e 523d 5bba cabd a3f2 ea3d 39fd 9f3d
00000110: 538a 29be 968c 623d 7064 e6bd 099f 673d
00000120: 7d38 dabd d308 18bd b0ba 903d 8dbd 5bbe
00000130: f27a fe3d 2c22 ec3d 931e 16be 4146 05bd
00000140: 3b38 b9bd 3779 cd3c 52dc d83b ef80 49be
00000150: 8352 dcbd 3b8e 303e 7b6e 6abd 063b eebd
00000160: 7d0a afbe efab 9cbd 9a21 e13e 4363 a2bd
00000170: c0be e7bd b4ef 903b 8013 3abd 7237 a1bc
00000180: e920 1a3e e9a5 dcbd 005d 473d 69a4 41be
00000190: 846d b3bd a23a 723d b055 0cbe adc8 ba3e
000001a0: 99e7 7a3d aebc f93d faf6 aa3c 6b89 a6ba
000001b0: ebae d63d 2bdb fcbd b1ff adbd 1a2b f8bd
000001c0: 2d96 1dbe 62f5 5dbd 8e67 283e a066 23bd
000001d0: 505e 0e3d 4d30 ddbc 8c37 a9bc dc15 b2bd
000001e0: 86b4 c4bd 2d20 8cbd dd45 8b3d c3b8 0cbe
000001f0: 9af5 9dbc ae0d 4abc 2bae 593d b674 a13d
00000200: 1f0f e63c 4c47 e83d e8fb 3e3c dae9 39bd
00000210: eaf5 f5bc f6c2 15bd ac24 b7be 933b cb3e
00000220: 4663 31bd bb3d 28bd 957c fdbc 5fda 6e3d
00000230: 17d2 07be 5fe6 03be 5664 46be f5a3 93bd
00000240: 583a 5cbe 5b6e 2abe 3a1a bdbd 65ff 87be
00000250: 4e00 0abc 8af3 67be 34d6 aabe bd48 8cbe
00000260: b7bd 54be b8b0 433e 61ab babd 2ca2 ab3e
00000270: 2aff 4d3e b761 aabd d5de db3d ca13 0dbd
00000280: 6fb1 873d d742 023e d31f 85be e01c 24bc
00000290: 7bfb 66bd af44 e7bd 0ebb bebe 1aa4 46be
000002a0: 9343 d2bd 1a02 4a3d e065 8d3e fd66 8f3d
000002b0: 11be 74bd 30c9 28be 2448 16be f226 873c
000002c0: 511a 0dbe de64 d5be 41cc 7b3e 4651 3abe
000002d0: 4591 39be 506e 66ba 0627 5cbe 9a9e 8dbe
000002e0: 3970 82be 9bea d9bd 8732 243d 34e3 e9bc
000002f0: 70e4 46be 023a 67be b499 76be 07f6 13be
00000300: 4ac1 83be c45d f33d 567d bebd d9ff afbe
00000310: 3afd c2bd fd9c b13d 1da2 46bd 9fc7 e439
00000320: cd49 63be 49ee 873e 3f07 c13d de25 da3d
00000330: 3431 dd3d 8358 35bd caa8 12bd 8310 0d3e
00000340: 5dfc 503c d554 7cbe 3c1c e83c 3d35 1dbe
00000350: 7a08 1a3e 6b64 d8bd 840f 52be 522a 013d
00000360: 03aa 0c3e 1e2d 33bc 744b 2e3d ebe1 c4be
00000370: c958 c8bc b089 ddbc 09bf 9abb 2918 6abe
00000380: 5796 193e 3efa c03d fc7f 9cbc e737 063e
00000390: 9437 29be 9c43 6a3d 66a5 543e 2abd 2cbc
000003a0: 465e 133e 3be7 8cbe baa8 85bc 5111 f43d
000003b0: b33a a3bd 7ca6 163e 3ab7 60bd 285f 293f
000003c0: d06a 00be aa5a c8be bcdf a63d 8009 8fbd
000003d0: 32db 47bc d962 01be 1e8e 88be 2bf3 7e3e
000003e0: 21ed 03bc 50da 503f bbc7 49be 6011 093e
000003f0: 066f bfbd 7d76 223e bf2a d4bd 507b e4bb

fc1.2.bias f4 [64]
-0.043464463 0.099731594 -0.06832113 -0.023811968 0.15605338 0.18206348 0.17728306 0.044417292
0.014808824 0.032486785 0.20985216 -0.01774866 -0.11373599 -0.1088076 -0.03632294 0.15633588
-0.00030843372 0.08599635 0.13194498 0.037648045 0.19671774 -0.08711529 0.06959925 0.19204578
0.0007752531 0.15934232 0.040718846 -0.0347927 0.023943119 0.0497097 -0.081319064 0.07630568
0.15088436 0.0053035235 0.15225829 -0.10359852 -0.30032387 -0.012176014 -0.1108965 -0.15068933
0.035556175 0.014210908 -0.08637868 0.19073243 -0.05539157 0.06016024 0.113337405 0.15999183
0.042558305 -0.011511642 0.13378727 0.060535297 0.1121122 -0.08023087 0.10208974 -0.25283125
0.052123692 -0.0009508842 -0.066293895 -0.1469896 -0.009544745 -0.0041621253 0.16399741 0.008388203
00000000: cb07 32bd 1440 cc3d f3eb 8bbd 5111 c3bc
00000010: 75cc 1f3e d96e 3a3e b189 353e e8ee 353d
00000020: b6a0 723c dd10 053d 7ce3 563e a365 91bc
00000030: 6aee e8bd 85d6 debd 5dc7 14bd 8316 203e
00000040: 46b5 a1b9 db1e b03d 961c 073e d634 1a3d
00000050: 6070 493e 8069 b2bd 0d8a 8e3d a6a7 443e
00000060: 5b3a 4b3a a22a 233e cec8 263d ca82 0ebd
00000070: 5c24 c43c 669c 4b3d 9c8a a6bd 2746 9c3d
00000080: 6e81 1a3e 2ec9 ad3b 99e9 1b3e 762b d4bd
00000090: 0dc4 99be e77d 47bc b41d e3bd 4e4e 1abe
000000a0: 5aa3 113d ded4 683c 4ee7 b0bd 5d4f 433e
000000b0: 45e2 62bd 956a 763d 711d e83d e6d4 233e
000000c0: 9e51 2e3d 539b 3cbc 88ff 083e dcf3 773d
000000d0: 159b e53d 1550 a4bd 6d14 d13d 1973 81be
000000e0: a77f 553d c244 79ba 18c5 87bd 7184 16be
000000f0: 9061 1cbc 7062 88bb f0ee 273e ac6e 093c

output.weight f4 [5, 64]
0.01880942 0.083078146 -0.0154687315 0.17777005 0.1013943 -0.08719486 -0.015138633 0.11270085
0.024304144 -0.03674963 0.22696525 0.03983116 0.08202311 -0.007835545 -0.085778594 -0.045852732
-0.0059498325 0.18674509 0.033678558 -0.06446443 -0.1398821 0.312117 -0.028009836 -0.11664566
0.0343943 -0.090726055 -0.046310306 -0.06359821 -0.005710713 -0.049380466 -0.08916137 -0.01612482
-0.043597195 -0.04186757 -0.09099507 0.19390678 0.102443695 0.25245088 0.07256574 0.12632504
0.06875835 -0.04296108 0.023022676 0.1169571 0.008854669 0.08195621 0.023244027 0.055382345
0.16647209 -0.07035165 0.019424165 -0.040490154 -0.033029776 0.11440237 0.10930056 0.027991509
0.10198784 0.044018477 -0.06976591 0.11890316 -0.0042695166 -0.029864972 -0.21964483 -0.01930536
-0.05245291 0.03221632 -0.01853048 -0.120645314 -0.13016428 -0.06815192 0.03580198 0.07526815
-0.011771889 -0.09642696 0.10515455 -0.24864651 -0.043654684 -0.00780116 -0.09609586 -0.09403874
-0.008890611 -0.22714883 -0.00925212 0.14995717 -0.039991513 -0.12322915 0.09208618 -0.11449745
-0.013562393 0.032639474 -0.10727855 -0.053589698 0.0011350135 -0.11353843 -0.07001802 -0.26890317
0.14614592 -0.0029038403 -0.0075982837 -0.11811552 -0.00021823084 -0.007235501 0.055295438 -0.098044395
-0.113384984 -0.029191392 0.10118646 -0.05902441 -0.014203872 0.022149086 -0.050424438 -0.12636352
-0.11823069 -0.07488292 -0.048462838 -0.005294651 -0.024302512 0.07683139 -0.16274686 -0.05969841
0.16900596 -0.03605315 0.09079708 0.03345583 0.17587616 -0.0026645616 0.16554545 0.022853212
-0.052986834 0.01963008 0.15097217 -0.10533807 -0.15332252 -0.029047009 0.06384344 -0.07979795
-0.015628286 -0.015990255 -0.18096875 0.06119696 -0.055003375 -0.04604874 0.14774892 0.030792743
-0.052998096 -0.026524726 0.03202137 -0.17852272 0.06468692 -0.0037016682 -0.13958956 -0.07786374
-0.04961186 0.0035534094 -0.081239104 -0.029218547 0.0015145857 0.0390302 -0.0061737243 0.27207625
-0.24208657 -0.020858707 -0.041041426 0.018145146 0.039641056 -0.018792039 0.09159375 0.012378919
0.100381956 0.124316655 0.022472378 -0.25842926 -0.103360176 -0.09359665 -0.14269929 -0.093984075
-0.20922412 0.060072776 0.1669038 -0.16073543 0.07783732 -0.04394309 0.09306054 -0.09266921
-0.03722246 -0.065303124 0.08737968 0.039196912 0.11688252 -0.014625553 -0.035906535 0.15908982
-0.049778078 -0.011238464 0.15218918 -0.04204523 0.14765537 0.019537913 -0.14660437 0.0036835838
0.005500212 -0.10475472 -0.11265598 -0.11495091 0.033540376 -0.01622322 0.071042314 -0.0051409225
-0.0034771522 0.1343285 0.07124607 0.11039352 -0.049903385 -0.109422594 -0.16686967 -0.053169776
0.060030323 -0.115160935 0.13103242 0.050634548 -0.049313836 -0.12360486 -0.11089728 -0.09088226
0.2067488 0.0050547346 -0.124233335 -0.05021232 -0.028442001 0.13064222 0.057111915 -0.03394666
-0.058384094 -0.018191652 -0.064225435 0.067206845 -0.09669716 -0.10694714 -0.024875691 -0.014392678
-0.12935984 0.0012105707 -0.042429242 -0.17285094 0.15825117 -0.06214604 -0.18343523 -0.06359087
-0.06215862 -0.007212381 0.07053768 0.0019163081 -0.11158681 -0.059147023 0.016907403 -0.118504286
00000000: 3616 9a3c e024 aa3d 9070 7dbc 5a09 363e
00000010: d1a7 cf3d 3893 b2bd 0708 78bc b4cf e63d
00000020: 7c19 c73c c886 16bd 9469 683e 0026 233d
00000030: bbfb a73d a860 00bc b0ac afbd 13d0 3bbd
00000040: d0f6 c2bb 1b3a 3f3e 87f2 093d ed05 84bd
00000050: 413d 0fbe cdcd 9f3e e274 e5bc ebe3 eebd
00000060: 0ae1 0c3d 95ce b9bd e0af 3dbd c73f 82bd
00000070: ef20 bbbb 2c43 4abd 3d9a b6bd 3318 84bc
00000080: f992 32bd 547d 2bbd a05b babd 808f 463e
00000090: 00ce d13d 3e41 813e 599d 943d 5a5b 013e
000000a0: 2ed1 8c3d f5f7 2fbd 0d9a bc3c 3487 ef3d
000000b0: 2c13 113c a8d8 a73d 426a be3c 99d8 623d
000000c0: a977 2a3e 8714 90bd 6d1f 9f3c 01d9 25bd
000000d0: 3b4a 07bd ca4b ea3d f9d8 df3d 734e e53c
000000e0: 00df d03d b84c 343d 6ee1 8ebd 8083 f33d
000000f0: 4de7 8bbb 63a7 f4bc 93ea 60be 4626 9ebc
00000100: ddd8 56bd 43f5 033d 3ccd 97bc e414 f7bd
00000110: c949 05be 3c93 8bbd 19a5 123d 3026 9a3d
00000120: e2de 40bc 7f7b c5bd 455b d73d 319d 7ebe
00000130: 41cf 32bd e0a0 ffbb e8cd c4bd 6297 c0bd
00000140: eda9 11bc b499 68be 3496 17bc 5f8e 193e
00000150: 24ce 23bd 915f fcbd ae97 bc3d a47d eabd
00000160: cd34 5ebc f8b0 053d dbb4 dbbd df80 5bbd
00000170: bcc4 943a d686 e8bd 9c65 8fbd adad 89be
00000180: 47a7 153e 5b4e 3ebb 06fb f8bb 8de6 f1bd
00000190: e5d4 64b9 c817 edbb 787d 623d 80cb c8bd
000001a0: 6336 e8bd c922 efbc d93a cf3d 94c3 71bd
000001b0: 5bb7 68bc 0072 b53c db89 4ebd 7065 01be
000001c0: ef22 f2bd 375c 99bd f880 46bd c07e adbb
000001d0: 1016 c7bc c759 9d3d 1da7 26be 5286 74bd
000001e0: e60f 2d3e 78ac 13bd d2f3 b93d fb08 093d
000001f0: e118 343e ed9f 2ebb bf84 293e a936 bb3c
00000200: b908 59bd 43cf a03c 7398 1a3e 7cbb d7bd
00000210: 9400 1dbe fef3 edbc 59c0 823d 1c6d a3bd
00000220: e406 80bc fffd 82bc df4f 39be aaa9 7a3d
00000230: 384b 61bd 9b9d 3cbd 7e4b 173e 1041 fc3c
00000240: 8814 59bd 624a d9bc d728 033d a9ce 36be
00000250: 937a 843d b097 72bb 91f0 0ebe 0677 9fbd
00000260: ce35 4bbd 51e0 683b b060 a6bd bc5b efbc
00000270: 1085 c63a 22de 1f3d f44c cabb 944d 8b3e
00000280: 8be5 77be e1df aabc 0e1b 28bd 21a5 943c
00000290: a95e 223d c3f1 99bc 8195 bb3d f3d0 4a3c
000002a0: 0e95 cd3d bb99 fe3d fe17 b83c d750 84be
000002b0: 80ae d3bd 9aaf bfbd c31f 12be b97a c0bd
000002c0: d93e 56be df0e 763d d4e8 2a3e d497 24be
000002d0: 2c69 9f3d abfd 33bd 8696 be3d 5bc9 bdbd
000002e0: 9476 18bd a5bd 85bd 1ef4 b23d f18c 203d
000002f0: 1a60 ef3d 04a0 6fbc bb12 13bd 71e8 223e
00000300: 19e4 4bbd 8921 38bc 7bd7 1b3e 9e37 2cbd
00000310: f832 173e f90d a03c 751f 16be 4868 713b
00000320: 1f3b b43b a589 d6bd 2eb8 e6bd 626b ebbd
00000330: a261 093d 8fe6 84bc a27e 913d 2f75 a8bb
00000340: efe0 63bb 698d 093e 76e9 913d ff15 e23d
00000350: 7e67 4cbd f418 e0bd e2df 2abe 8dc8 59bd
00000360: 5be2 753d 7fd9 ebbd 5d2d 063e 2c66 4f3d
00000370: 4efd 49bd 8b24 fdbd 1d1e e3bd 7a20 babd
00000380: f5b5 533e 30a2 a53b 0c6e febd 6fab 4dbd
00000390: 33ff e8bc 13c7 053e 2fee 693d a70b 0bbd
000003a0: 2924 6fbd a906 95bc a088 83bd bea3 893d
000003b0: 2909 c6bd 1a07 dbbd 1bc8 cbbc 44cf 6bbc
000003c0: e876 04be 03ac 9e3a 49ca 2dbd d6ff 30be
000003d0: 980c 223e d98c 7ebd 72d6 3bbe ee3b 82bd
000003e0: 0a9a 7ebd d655 ecbb 0f76 903d a12c fb3a
000003f0: a087 e4bd 2644 72bd 6581 8a3c 60b2 f2bd

output.bias f4 [5]
-0.1435045 0.14691795 -0.0036388212 -0.03692957 0.0952587
00000000: d8f2 12be a971 163e 4a79 6ebb 7643 17bd
00000010: fe16 c33d
