example_models/primal_without_imitation/actor_net.pth (torch, 83175 bytes, 6 tensors)

fc1.0.weight f4 [64, 245]
000000 37 d3 28 bd 58 94 72 bd 55 e1 e5 bc 04 d9 4c bd
       -0.041217055 -0.059223503 -0.028061548 -0.05001165
000010 67 7e fb b9 53 54 43 bd 45 e1 59 bd 45 4c 54 bd
       -0.00047968628 -0.04768784 -0.05319335 -0.05183055
000020 7c 98 de bc 04 6b b7 3c a0 d3 72 3d a2 ee 3e 3d
       -0.02717232 0.022389896 0.059283853 0.046614297
000030 02 18 a9 3c bd 82 b4 bc eb 44 17 bd 87 f7 1d bd
       0.02064133 -0.022034997 -0.03693096 -0.03856614
000040 88 d7 54 bd e4 41 12 bf 69 45 20 3d 24 01 a7 bc
       -0.05196336 -0.5713179 0.039128695 -0.020386286
000050 71 d3 82 ba 3c 75 93 3c 75 dc 33 bd 1f 0c 74 be
       -0.0009981227 0.018000238 -0.043911416 -0.23832749
000060 5d 88 28 bb e1 fc 48 3e 05 31 81 3d 69 9b 3a bd
       -0.0025716044 0.19627716 0.06308178 -0.045558367
000070 02 c3 62 bb 7f 79 d8 bc 3b 1e 67 3b 80 f7 0f 3f
       -0.0034601097 -0.026425121 0.0035265821 0.5623703
000080 e6 23 ad bc d4 bc da 3c a6 53 5f 3d 28 26 10 3d
       -0.021135282 0.026701368 0.054523133 0.03519264
000090 73 19 7f 3c 52 92 81 bd 7d e6 81 3d f3 cb 0b 3c
       0.015570032 -0.063267365 0.0634279 0.008532512
0000a0 41 37 82 bd c4 ee 55 3c 40 18 dc bb 50 3e 79 3d
       -0.06358195 0.013057414 -0.006716758 0.06085044
0000b0 c7 e6 52 3d 79 1d 4d bd 04 9c 4b 3d a9 d5 cd 3c
       0.051489618 -0.050076935 0.049709335 0.025126295
0000c0 10 89 44 3c d6 96 e8 3d 74 cb 10 be 75 24 28 be
       0.011995569 0.11356895 -0.14140111 -0.16420157
0000d0 24 70 d1 bd e9 56 c4 bd e8 7d a7 bc ce 93 b0 bd
       -0.10226467 -0.09586889 -0.020445779 -0.086219415
0000e0 d1 c6 a8 bd 64 48 a8 bd 0a 0f 19 be 8c 13 17 be
       -0.08241046 -0.082169324 -0.14947143 -0.1475355
0000f0 1d 96 2d be 9a a0 d8 bd 90 58 f2 bc c1 5e f6 bd
       -0.16951795 -0.10577507 -0.029583246 -0.120297916
000100 aa 04 47 be 34 9f 68 be 18 1e 50 bf 56 01 63 be
       -0.19435373 -0.22716981 -0.8129592 -0.22168478
000110 6b 0f d9 bd d3 af f8 bc c2 5c cc bd da 55 06 bd
       -0.10598644 -0.030357277 -0.0997863 -0.03279672
000120 b6 f0 5c be 80 9a e0 3d fd 95 da 3e 83 6a 77 3d
       -0.21576199 0.109669685 0.42692557 0.060404312
000130 e1 f4 b4 3c a7 09 c9 bc 6f 50 74 3d 50 e8 05 3e
       0.022089424 -0.024540735 0.05964702 0.13076901
000140 96 f3 5e 3f e9 58 62 3e 2f 75 23 3b 5a 35 00 3d
       0.8709043 0.22104229 0.0024941673 0.03130088
000150 26 8b 52 3d 32 f4 bc 3c 8c d8 0c 3d 0b ec 91 3e
       0.051402234 0.02306566 0.034386203 0.285004
000160 f8 09 13 3e 40 3d 08 3d b9 74 87 bd f9 5c 00 be
       0.14359272 0.033261538 -0.0661406 -0.12535466
000170 5e c5 9f 3d 81 c7 dc 3d c9 f9 eb 3d 26 3b 09 3e
       0.07801317 0.1078024 0.11522252 0.1340147
000180 5b 45 0b 3d e6 75 e7 3d df 49 77 bd 2b 79 cb 3c
       0.03400169 0.11301784 -0.060373183 0.02483805
000190 97 18 1c 3c a8 4b 8e 3d b8 60 5f 3d d7 5d 3f 3d
       0.009527347 0.06948024 0.054535598 0.046720352
0001a0 a4 79 70 3d 60 03 88 3d d8 00 c4 bc a0 25 a6 3d
       0.058709756 0.06641269 -0.023926184 0.08112645
0001b0 8b 7f 04 3e c5 c4 3b bd d8 04 c3 3d fe 3b 0e bd
       0.12939279 -0.04584195 0.09522408 -0.03472518
0001c0 b1 8c 74 3d 66 cc 59 3d ed 64 f8 3d 8c 03 e7 3e
       0.059704486 0.053173445 0.12128625 0.45119894
0001d0 ea fb c2 3c 5b 3d a5 3d 64 ab 21 3d 25 c8 20 3d
       0.023801763 0.08068343 0.03947009 0.039253373
0001e0 d7 01 30 3d 22 c1 8c 3e eb ff 85 3c ae b0 50 be
       0.042970505 0.274911 0.016357383 -0.20379898
0001f0 4a c6 87 bd 30 40 45 3d d6 0a 54 bd 01 c1 33 3c
       -0.066296175 0.048156917 -0.051768146 0.010971309
000200 80 8d c9 bc 9b 61 07 bf 35 ec ed bd 54 95 12 bd
       -0.024603605 -0.5288331 -0.116173185 -0.03578694
000210 7f 28 b9 ba 15 79 30 3c b9 bf ee 3c b9 62 16 3c
       -0.0014126449 0.010771056 0.029144155 0.009178811
000220 96 6d eb bd 13 83 2c bb 56 88 0d 3d 2c dd 42 3d
       -0.11495511 -0.0026323244 0.03455385 0.047574207
000230 6c 3f f9 3b a2 0d a5 3c b7 af f1 3b cf d1 c8 bd
       0.0076064374 0.020148102 0.007375683 -0.09805643
000240 89 14 a1 bb d8 dc 04 bc fe 7a 51 bb 2f 57 59 bd
       -0.004915778 -0.008109294 -0.0031964178 -0.05306166
000250 14 73 f4 ba 96 90 a0 3d 53 b6 97 3d ca 61 88 bd
       -0.0018650019 0.078400776 0.074078225 -0.06659277
000260 d7 d2 bd 3b 7d 64 33 bd 6e e3 1c 3d d6 0a bd bc
       0.0057929563 -0.043797005 0.03830283 -0.023076456
000270 6f 43 01 be 45 95 ae bb 79 57 88 bd 65 f6 b4 bd
       -0.1262338 -0.005327853 -0.06657309 -0.088360585
000280 e1 7a cd bc eb b2 0a 3b ee 63 0d bd 84 a0 2b 3d
       -0.025083007 0.0021163772 -0.03451913 0.041901127
000290 d1 80 21 3c 4d db 02 3c 4c d0 10 bd be 37 15 bd
       0.009857372 0.007986856 -0.035354897 -0.036430113
0002a0 21 d7 8f 3d 2b 63 4e 3b 0e 7f 67 3c 4a 7f 88 bc
       0.070234545 0.0031492214 0.014129413 -0.016662259
0002b0 c1 24 b0 3c 03 2e 95 ba 49 c1 8f bc 16 3f c9 bc
       0.0215019 -0.001138151 -0.01754822 -0.024566215
0002c0 d5 dd f8 bc 6f 05 fb 3d d6 0e 70 3d 1e 40 1e bc
       -0.030379215 0.12256896 0.0586079 -0.009658841
0002d0 37 89 ca bc 35 d5 68 3d 14 5b 0e 3d af 13 10 bd
       -0.024723632 0.056843955 0.034754828 -0.03517502
0002e0 d9 e1 09 bc 14 68 ef 3c 49 aa 54 bc 88 3e c6 bc
       -0.008415663 0.029224433 -0.012980052 -0.02419974
0002f0 a5 70 50 bc f0 36 34 3c 13 18 8a 3d c5 5e 03 bd
       -0.012722169 0.010999426 0.06742873 -0.0320728
000300 3e f3 13 3d c6 02 37 3d 7a dd b7 3c e8 9a 63 bd
       0.036120646 0.04468038 0.022444475 -0.055567652
000310 01 b6 8b bc 7e f9 80 bc 27 2b 16 bd bc a2 b2 3d
       -0.01705456 -0.015743967 -0.036662247 0.08722445
000320 1b 35 9f 3d 96 a2 15 3c da dd 12 bc 72 3c 9c 3c
       0.07773801 0.009133002 -0.008964026 0.019071791
000330 22 49 6d 3d 10 0e 56 3c 8e 75 67 3d e7 70 15 3d
       0.057931073 0.013064876 0.056508593 0.036484625
000340 66 c9 70 3c 77 00 63 bd 8d 39 eb ba 46 1f 20 bd
       0.014696455 -0.055420365 -0.0017946229 -0.039092325
000350 2d 5a 82 3c 84 4a a6 3d d7 97 6f ba 18 36 23 bc
       0.01591214 0.081196815 -0.00091397524 -0.009961627
000360 e7 ae 2d bc dc 79 eb ba c4 3d 38 3c 82 93 98 bc
       -0.010600782 -0.0017965394 0.011245195 -0.018625025
000370 bd 21 b7 3c c3 23 8d bc f5 e5 21 bc 61 ef 02 3d
       0.022354955 -0.017228967 -0.009881486 0.03196657
000380 1f 51 42 bd 3c a7 04 3d 18 a9 3c bb d2 0f 1e 3d
       -0.047440644 0.03238605 -0.0028787311 0.038589306
000390 9b 43 93 3c e8 b1 ba bc 8d 65 06 3d 42 d7 4b 3c
       0.017976573 -0.02278991 0.03281169 0.012441458
0003a0 70 48 07 3d 48 f7 14 3d b6 ea 75 bc ed 26 ea 3c
       0.033028066 0.03636864 -0.015009573 0.028583014
0003b0 b0 5e 2f bc 08 c6 6e bd 59 26 41 bc 61 0b b8 bc
       -0.010703728 -0.058294326 -0.011788928 -0.022466363
0003c0 6e f8 42 3d b4 a4 0d 3d 08 f7 81 bd 43 15 a0 bc
       0.047600202 0.0345809 -0.063459456 -0.019541388
0003d0 cc 06 f3 bc 25 3c c3 bb 80 1f 6a bc 9e 12 87 3b
       -0.029666327 -0.0059580975 -0.014289737 0.0041220924
0003e0 ee de 29 bd a1 f2 5d 3d a6 ad 13 3c 1b 97 1e bc
       -0.041472368 0.054186467 0.009013569 -0.009679581
0003f0 82 7b 2f 3d 8f ba 66 3d 9d 6a 56 bb 1f da ff 3c
       0.042842396 0.05633026 -0.0032717355 0.031231938

fc1.0.bias f4 [64]
000000 58 21 31 3d 84 72 b4 3d 2f 83 e7 bc 66 d7 c2 bd
       0.04324469 0.088109046 -0.028260795 -0.0951374
000010 34 a9 67 bc e2 0c d6 3b 8e b4 8f bb 81 75 b6 bc
       -0.014139462 0.0065322975 -0.0043855375 -0.022272827
000020 01 f2 0e bd 74 62 b3 bd 87 f5 17 3c 50 d7 1c be
       -0.03489876 -0.08759013 0.009274847 -0.1531651
000030 ea 07 52 3d e0 f5 8d bc 85 69 c0 bc f2 b1 0f 3c
       0.05127708 -0.017329156 -0.023487816 0.008770453
000040 af 52 33 3d 22 8f de 3d 15 f8 5b 3d 60 de 0c 3d
       0.043780025 0.10867144 0.053703386 0.03439176
000050 81 83 4b 3d 73 f6 83 3d e7 b6 6c 3d 97 9b 2c bc
       0.04968596 0.06443491 0.057791617 -0.010535142
000060 0a fc 57 3d ec e4 ef bc db 0f e8 3d b7 f4 fe 3d
       0.052730598 -0.029283963 0.11331149 0.124490194
000070 18 eb 64 3c 77 c4 0b bc 5a dc 73 bc d9 2d 99 bd
       0.013972066 -0.008530728 -0.014884079 -0.07479448
000080 1f 13 4f bd 4b 59 9b 3d f5 dc ba bd 39 bc cb bd
       -0.050555345 0.07585391 -0.091241755 -0.0994801
000090 5f 7c 68 bc 6f f1 b8 bd 63 15 36 3d 3d cb de bd
       -0.014189809 -0.09030425 0.04445399 -0.108786084
0000a0 9e a7 04 3e 89 5b d6 bc 00 bf a8 bb 29 de e1 bb
       0.12954566 -0.026166694 -0.005149722 -0.0068929386
0000b0 96 a0 7f 3d d6 77 d9 3d 7e 2a a0 bd 04 23 ba 3d
       0.062409006 0.1061856 -0.07820605 0.0908871
0000c0 a0 d8 45 bc 21 e9 3a 3e b6 36 7b 3c 3c 3f 0e be
       -0.012075573 0.18252994 0.015332868 -0.1389131
0000d0 23 dd 73 3d 9d 24 44 3d 33 f7 6a 3c f8 fa 9d 3d
       0.059537064 0.04788648 0.014341163 0.07713884
0000e0 55 1a 70 bc 75 d2 50 3d 47 a5 db 3d 3d 93 63 3c
       -0.014654716 0.050981957 0.107248835 0.013890085
0000f0 ba 1a 84 3d 17 be d0 3c d1 0b a5 bd 11 5e f0 3d
       0.0645041 0.025481267 -0.080588944 0.11736692

fc1.2.weight f4 [64, 64]
000000 7e 30 c4 3c 6b c2 fb bb 77 da f7 3c 17 e4 fb bd
       0.023948904 -0.0076830885 0.03025554 -0.12299364
000010 c4 88 6d bd 6b 74 b1 3d f2 ab c0 bd 64 64 99 bc
       -0.057991758 0.08664783 -0.09407796 -0.018724628
000020 30 97 2a be 5a 2f 95 bd 35 28 3f bd 8c 1c cf bd
       -0.16659236 -0.07284422 -0.046669204 -0.10112867
000030 cc eb 05 3e 1f 96 00 3d 2e 2a ac 3d 39 a6 16 bd
       0.1307823 0.031393167 0.08406483 -0.036779616
000040 ef 6c 5d 3d ab c3 e8 3d 7c c4 da bd 41 82 c4 3d
       0.054058965 0.11365446 -0.10682008 0.095951565
000050 7d ad 8f 3c 1a 69 ae 3d fa f5 cd 3d 18 96 a2 bb
       0.01753878 0.0851614 0.10056682 -0.00496174
000060 d7 4f a5 bd 0a f8 82 bd 42 bc a6 3d 0f d1 cc 3d
       -0.08071869 -0.06394966 0.08141376 0.10000812
000070 94 ed 00 bd ba 56 e0 bd b0 4c 91 3e c8 1b 49 be
       -0.031476572 -0.10954042 0.2837882 -0.19639504
000080 ba 13 d5 3d 7c bb 46 bd 8d 1e de 3d 7e 43 2e 3d
       0.10404153 -0.048518643 0.10845671 0.042544834
000090 1b bc 7a 3d 69 64 22 3e e6 be 42 3d 92 6a d5 bd
       0.061214548 0.15858616 0.047545336 -0.10420717
0000a0 6a 4a b6 bd 77 f3 33 be d0 c1 16 3e 94 39 97 3d
       -0.08900912 -0.17573343 0.14722371 0.07384029
0000b0 7e db 8a bc e8 01 21 39 7f 39 03 bd 16 5c d7 3d
       -0.016950365 0.00015354867 -0.032037254 0.10515611
0000c0 8b 9b 6c be 91 a5 d1 3d 69 14 04 3e 71 b4 a6 3c
       -0.2310621 0.102366574 0.12898411 0.020349713
0000d0 f5 1e 9d bc dd a8 e9 3d 01 fc 88 3d 54 1b 87 bd
       -0.0191798 0.11409161 0.06688691 -0.06597009
0000e0 13 67 b8 bd f8 46 60 bd 94 55 19 3e fb f4 f4 bb
       -0.09004035 -0.05475518 0.14974052 -0.007475493
0000f0 67 68 ee 3d c8 ba 46 3c bd 5d 6f 3b 4f 97 1e 3e
       0.11641007 0.012129493 0.0036524378 0.15487407
000100 a1 95 01 3e 98 ac a4 bd ae ab 9e 3d f5 2e 94 3d
       0.12654735 -0.08040732 0.07747589 0.07235519
000110 d9 71 13 be bd 21 0b bd 1e bd 47 3c 28 a4 43 3e
       -0.14398898 -0.033967722 0.012191085 0.1910559
000120 31 22 46 3e 06 4c 9d 3b 30 47 c9 bd 98 f9 da 3c
       0.1934898 0.0048003225 -0.09828031 0.026730344
000130 11 06 2e bd 5e bc 31 be 43 2c a9 bb f1 46 9b bd
       -0.042486254 -0.17357013 -0.005162747 -0.075818904
000140 bd 02 0e be 25 e8 17 3e d1 71 69 3d f6 65 89 3c
       -0.13868232 0.1483465 0.05699331 0.016772252
000150 27 b5 94 bc b0 aa 74 3d d9 98 cd 3d cd fa 02 3e
       -0.018152786 0.059733093 0.10038919 0.12790985
000160 36 0e cd 3d 1a 81 fb bd c5 e5 ff bd d0 f4 33 bd
       0.10012476 -0.122804835 -0.12494997 -0.043934643
000170 0e ea 06 3d 25 34 9b 3d 01 92 39 be 09 c6 b5 bc
       0.032938056 0.07578305 -0.18122102 -0.022189157
000180 6a ff 9e bd df c7 33 3d bf 0c 9d bd 9f 88 99 bc
       -0.0776356 0.043891784 -0.07668447 -0.018741904
000190 e9 59 0c 3e 99 ff 52 3e c7 d8 e1 3d 94 3c 00 3e
       0.13706173 0.20605315 0.11027675 0.12523109
0001a0 3f 78 61 3d ce ee bb bd f3 c3 1f 3d f0 3a 8a 3d
       0.055046316 -0.09176408 0.03900523 0.06749523
0001b0 0b f9 41 be 99 87 fe bd 8d 63 42 bd ab 8f aa bd
       -0.18942659 -0.12428207 -0.04745822 -0.08328184
0001c0 15 3b 12 3e 1a b1 16 be fe 2b 1c be c4 cb b2 bb
       0.1428035 -0.14715996 -0.15251157 -0.0054564197
0001d0 2f 9f a3 bd 8b 5a 20 3d 75 c8 cf 3d c7 13 b0 bc
       -0.07989346 0.03914885 0.10145656 -0.021493806
0001e0 df 2d 9e 3d b5 ef d5 bc 10 bb 36 be 52 d9 00 3e
       0.07723593 -0.026115278 -0.17844796 0.12582901
0001f0 67 31 6b bb 25 1d 06 bd 0d 08 3d 3e 51 78 c9 bc
       -0.00358876 -0.03274264 0.18460102 -0.024593504
000200 fd 92 27 be 98 ce a8 3b 1f dc 5e bd 40 d3 71 bd
       -0.16364665 0.005151581 -0.054409143 -0.059039354
000210 bf 8b f8 3d 15 77 36 bc d5 15 ee 3d 2e 05 81 bd
       0.121360295 -0.01113679 0.11625258 -0.06299816
000220 cc 14 cf bd 89 eb 06 3d a2 e7 26 3e a8 f6 bd 3c
       -0.101113886 0.032939468 0.16299298 0.023188904
000230 55 44 91 bc 2b a6 f5 3d 5e 95 9d bd 9f f8 68 bd
       -0.017732779 0.11994585 -0.07694505 -0.05687773
000240 01 13 14 3e 28 74 cf bc 8f 02 bd 3b 8c 2e f4 3d
       0.14460374 -0.025323942 0.0057681273 0.119229406
000250 a3 ab f7 bd 11 37 0b 3e 1a 25 06 3e eb 75 ba bc
       -0.12093284 0.13595225 0.1310009 -0.022761306
000260 60 1c 1d bc ab 05 cb bc ff fe 85 bd c0 ba 1f 3d
       -0.009589285 -0.024782976 -0.06542777 0.038996458
000270 d3 ee 15 3e bf e2 3f be 81 2b 58 3d 5b 3e ff bd
       0.14641885 -0.1873884 0.052775864 -0.12463065
000280 75 e0 67 bd ad 60 ca bd bb f7 52 3d 92 f8 29 be
       -0.056610543 -0.09881721 0.051505785 -0.16598728
000290 c6 53 73 be 87 2d 98 3c 11 c3 80 3c 6a 99 68 bb
       -0.23762426 0.018576397 0.015718015 -0.0035491833
0002a0 0e 51 cd 3d c4 9e 00 3d 19 ee 0c be 98 db da bc
       0.100252256 0.03140141 -0.13762702 -0.026716039
0002b0 80 54 c3 3d 89 30 8a bd f4 63 f6 3d 22 0c 18 3e
       0.095376015 -0.067475386 0.12030783 0.14848378
0002c0 8e 4c 29 3e 44 19 0e 3d 3f 76 35 be d0 c0 f9 bc
       0.1653311 0.034692064 -0.17720889 -0.030487448
0002d0 c6 08 66 3b e1 88 2e 3e 9c a7 c0 bd 5e a3 2e 3e
       0.0035100444 0.17044403 -0.09406969 0.17054507
0002e0 28 93 89 3e c1 b8 8a bd 92 22 03 3e 6c 44 5d 3c
       0.26870084 -0.0677352 0.12806156 0.013505083
0002f0 d5 88 82 3b e5 68 80 bd 2d ec 1c be bc 1a 07 3e
       0.003983597 -0.06270007 -0.15324469 0.13193792
000300 7f 57 50 bd c5 59 24 3e 6f 35 18 bd 6a dd 83 bd
       -0.050864693 0.1604987 -0.037160333 -0.06438716
000310 cf 47 f2 bd 85 12 6b be 54 6a 0c 3e f0 78 0e be
       -0.11830103 -0.22956283 0.13712436 -0.13913321
000320 97 78 7c bd 63 e9 e8 3d 0c ef 74 bd b0 e5 c6 3b
       -0.06163844 0.1137264 -0.059798285 0.0060698614
000330 f4 dd 8d bc 4f 92 d4 bc a6 10 67 bd 86 f9 ad bc
       -0.01731775 -0.025948672 -0.05641236 -0.021237146
000340 cc 8d ab 3c ce a4 9d bd 7e e1 7c 3d b1 c7 12 be
       0.020941637 -0.076974496 0.061738484 -0.14333989
000350 3d f0 e0 3c f2 31 54 3d 0b 59 e2 3d ad e1 1f 3e
       0.027458305 0.051805444 0.1105214 0.15613432
000360 06 b8 a4 3c 7d 58 14 bd 86 e6 fb bd 55 2f ec 3c
       0.02010728 -0.0362172 -0.12299828 0.028831163
000370 69 fc 03 bd 6b 07 e4 bb 6a 97 c6 3b 4e 5c 0b be
       -0.03222314 -0.006958892 0.0060605304 -0.1360943
000380 fc a9 6f be 51 9c fc bd 96 16 73 3c 56 f9 22 bd
       -0.23404688 -0.123345025 0.014836928 -0.039788567
000390 7c bb a0 3c ca d0 1b 3d 6e c0 a2 3c ac c8 c4 3d
       0.01962065 0.038040914 0.019867148 0.096085876
0003a0 da 48 72 bd 1d 54 f0 3b 47 01 fb bd 4f d3 27 3b
       -0.059151508 0.007334246 -0.12256103 0.0025608127
0003b0 a0 61 07 be a6 6b 92 bd 01 95 2d bd 1d d8 ba 3d
       -0.13220835 -0.071494386 -0.04237843 0.091232516
0003c0 03 15 37 3e b8 37 96 3d 97 76 44 be 9d 16 d1 3d
       0.17879109 0.07334846 -0.19185863 0.10209391
0003d0 e1 70 95 3d 38 39 cf 3d 3d dc df bb 19 a5 06 bd
       0.072969206 0.101183355 -0.0068316744 -0.032872293
0003e0 2a 44 3b 3d c1 0b 59 be b3 bf 67 3d de e2 cc 3d
       0.045719303 -0.2119589 0.056579303 0.10004209
0003f0 68 37 48 bd a5 4b 9d be e1 87 c2 bc b8 b4 47 bd
       -0.048880965 -0.30721775 -0.023746433 -0.04875633

fc1.2.bias f4 [64]
000000 d7 37 d4 3d cf a0 b7 3d 0a 4d 8a bc fd 94 e3 bd
       0.10362213 0.08966219 -0.016882438 -0.11112402
000010 ce ca 52 be 95 4c 2f be 6b 6b c0 3c ca ff c6 3d
       -0.20585176 -0.17119057 0.02348872 0.09716757
000020 00 75 6a 3d 24 ad 82 3d 37 6f ba 3d d0 b9 1f 3e
       0.057240486 0.0638068 0.09103244 0.15598226
000030 56 8d 47 bd df a4 cc bd a2 98 14 3e 00 58 de 3d
       -0.048718773 -0.09992384 0.1451135 0.108566284
000040 be 5a 92 bd 06 d2 1f 3e 5b a9 7f bc 35 5a 0d 3d
       -0.07146214 0.15607461 -0.015604342 0.034509856
000050 c1 55 76 3e e7 0c 87 3d a4 8d 8d be c3 c2 62 3e
       0.2405615 0.06594258 -0.27647126 0.22144608
000060 b4 4e 0b bd 96 e0 4e 3e 2e 6a fc 3d 50 ab 56 3b
       -0.034010604 0.2020286 0.1232494 0.0032755919
000070 a5 8d 50 be 41 82 c5 3d b3 18 5a be 25 fd e0 bc
       -0.20366533 0.096439846 -0.21298485 -0.027464459
000080 7b b8 20 3e cf 60 60 be 7a d3 1f bd c5 71 10 3e
       0.15695374 -0.2191193 -0.03902004 0.141059
000090 e1 65 79 be dd 77 54 3d 07 26 37 3e 50 02 1e 3d
       -0.2435527 0.051872123 0.178856 0.038576424
0000a0 fb 37 63 3e b8 ad 22 3d e4 00 11 be 72 b9 47 bc
       0.22189324 0.039716452 -0.14160496 -0.01219021
0000b0 01 12 3a 3e 47 c5 a7 bd b7 45 5e be 53 c8 e4 3c
       0.1817093 -0.081919245 -0.21706282 0.027927553
0000c0 a4 15 2f 3e fe 6e 1a 3e 78 2c 7f bd d8 61 0c 3c
       0.17098099 0.15081403 -0.062298268 0.00856825
0000d0 04 3f 28 3d 43 03 1a be b5 f1 52 be 08 2a 8c bc
       0.04107572 -0.15040307 -0.20600016 -0.017109886
0000e0 3a 9e 57 3b 2e 5a 94 bd b0 b7 7a 3a 1b 26 fb 3d
       0.0032900707 -0.07243763 0.0009564115 0.122631274
0000f0 b6 e7 f2 bd 52 50 c1 bc f2 28 7d 3d 7e b0 42 bc
       -0.118606016 -0.02359787 0.061806627 -0.011882899

output.weight f4 [5, 64]
000000 bb 0a 08 be ff e7 2f bc 45 b1 bf bc e9 d4 8d 3e
       -0.13285343 -0.0107364645 -0.023399958 0.277015
000010 fe c4 30 3e ff 98 42 3e f8 af 48 be 85 bf 3f bd
       0.17262647 0.19003676 -0.19598377 -0.046813507
000020 a0 99 e9 3b 6f 89 8b be ad dc 18 bd c8 72 be be
       0.007128909 -0.2725329 -0.037319828 -0.37196946
000030 d4 40 41 3a b1 c1 68 3e bb 76 0a bd b1 c6 34 be
       0.0007372026 0.22730137 -0.033804636 -0.1765392
000040 24 b2 18 bd 90 7b 8f be b7 7b 02 be a0 28 83 bd
       -0.037279263 -0.28023958 -0.12742506 -0.06404233
000050 c7 1d bd be cc 26 b5 bc 13 62 69 3e 75 d7 a9 be
       -0.3693678 -0.022113226 0.22791319 -0.33172193
000060 66 26 6c bc 61 fe a8 be 40 d4 b0 be fa da 31 bd
       -0.014413452 -0.33006576 -0.34536934 -0.043421723
000070 9b 7d 08 3e b9 bd b2 3c 15 57 8a 3e 59 41 8f bd
       0.13329165 0.021818982 0.27019563 -0.06994886
000080 24 b2 4a be 9e 08 86 3e 73 79 66 3e 6e b9 1f be
       -0.19794518 0.2617845 0.22507267 -0.1559808
000090 91 57 5e 3e 67 6b 58 bd 63 2b 89 be d7 3a 06 be
       0.21713091 -0.0528368 -0.26790914 -0.13108383
0000a0 8e 25 a2 be 7e 16 b7 3d a6 0b 48 3e c7 6e f8 bd
       -0.31669277 0.08939837 0.19535694 -0.12130504
0000b0 aa 56 5c be d1 b3 24 3e 4f 5c 1b 3e 7d 7e 64 be
       -0.21517435 0.1608422 0.15171932 -0.22313876
0000c0 9f ea 8c be 50 70 b7 be a9 14 fa 3d f6 6c d0 bd
       -0.27522752 -0.35827875 0.12210972 -0.10177033
0000d0 3a 2c 14 be 05 0a 3b 3e 9e f2 48 3e 3f 2c cc 3d
       -0.14469996 0.18265541 0.19623801 0.09969377
0000e0 02 32 d2 bc 88 d0 40 be c2 e7 df bd bd d2 46 be
       -0.025658611 -0.18829548 -0.10932876 -0.19416328
0000f0 ea 0d a4 3d 5a ce e8 bd 43 d6 71 3d 86 9e 91 bb
       0.080104664 -0.113674834 0.059042227 -0.0044439463
000100 ea 5e 4f 3d 45 d7 e8 3d 2a be fe bd 9b 4a a5 3d
       0.050627626 0.113691844 -0.12438615 0.080708705
000110 cd 0d 16 3e 28 7e 38 bd 7c f7 4c be be 3f 88 3d
       0.14653702 -0.045042187 -0.20016283 0.06652783
000120 fe 2b d3 3d b0 fc 02 bd 12 21 5e 3d f2 a5 2f 3e
       0.10311125 -0.031979263 0.054230757 0.17153147
000130 c8 08 64 bd 90 7c 0f be e5 cf 1d 3e 7e f6 fb 3d
       -0.055672437 -0.1401236 0.15411337 0.12302874
000140 59 d6 db 3c ea 6f b9 bd 9e df 15 3e 7d 46 f1 3c
       0.026835607 -0.09054549 0.14636084 0.029452557
000150 7c e2 ca 3d ca d0 51 bd db 68 20 be 55 0a e0 bb
       0.0990648 -0.051224507 -0.15664999 -0.006837169
000160 52 7c a6 bd 0a f8 0c 3e 7d 66 1e bd fc e7 fe bc
       -0.08129181 0.13766494 -0.03867196 -0.031116478
000170 a4 45 ac 3c b2 13 09 3c 2c 0a c7 bd f8 e5 14 bc
       0.021029301 0.008366512 -0.09718737 -0.009088032
000180 17 c5 32 3e 1a 3a 96 3d 74 dc e8 bd 8d 40 03 3d
       0.17457996 0.07335301 -0.11370173 0.032043982
000190 60 18 08 be f8 95 4b bd 26 7c 7f bd ca 8b 37 be
       -0.13290548 -0.04970357 -0.062374257 -0.17924419
0001a0 d3 da d7 3d 86 34 30 3e c5 31 fe bc 41 69 9e bd
       0.10539784 0.17207536 -0.031029591 -0.07734919
0001b0 98 e6 b4 3d 6a 6d db bd 44 54 56 3c 09 1c b8 bd
       0.08833045 -0.107142285 0.013081614 -0.08989722
0001c0 d7 fb 79 bd e6 d0 6c bc 59 a5 b6 3c 6a 24 4d 3e
       -0.06103119 -0.014454102 0.02229564 0.20033422
0001d0 60 bc d9 bd 8c ca ff bd 98 ad 76 3d f5 2c a6 bd
       -0.10631633 -0.124898046 0.060224146 -0.081140436
0001e0 3b 65 09 be 5d 81 fa bd ce 8b d7 bd d6 87 a1 bc
       -0.13417523 -0.12231705 -0.105247125 -0.019718092
0001f0 3f 11 10 3e 88 bb 15 be 92 1d 2d bd 67 ec d0 3d
       0.14069079 -0.14622319 -0.04226453 0.1020134
000200 34 81 10 3d 99 3a ad bd 24 9b 12 3e a7 8a 1c 3d
       0.035279468 -0.08458442 0.14316994 0.038218167
000210 eb c9 33 be b7 3d ff bc b6 13 1d 3e 7f 4e 18 be
       -0.17557494 -0.031157358 0.1533955 -0.14873694
000220 89 53 74 bd 70 ba 8a 3d 8a 75 6e 3e 92 c3 aa 3d
       -0.059649978 0.067738414 0.23287025 0.08338083
000230 02 7f aa ba bd df 23 3d a8 c2 f7 3c a4 0b 03 be
       -0.0013007822 0.040008295 0.030244187 -0.1279741
000240 4e 53 1d be 15 69 28 3e 8d 73 4d bc a1 f7 25 be
       -0.1536381 0.16446336 -0.0125397565 -0.16207744
000250 32 2c 2b 3e 59 99 b5 bd 64 15 0e be 3a 65 d6 3d
       0.16716078 -0.08867139 -0.13875347 0.10468526
000260 67 1d 1a 3e 00 58 27 3e 24 bd c5 bd 24 bd 08 3e
       0.15050279 0.16342163 -0.09655216 0.13353401
000270 41 8c b1 bd d1 c1 38 3d bf d0 7a bd c7 cc 1c 3d
       -0.086693294 0.045106713 -0.061234232 0.03828123
000280 98 f5 9e bd d3 fb e9 bc ed 50 ef 3d 99 9a 5e 3d
       -0.07761687 -0.028562462 0.11685357 0.054346655
000290 b6 4b 6b 3d c8 a6 bb 3d 06 3b ba 3d fb 10 a3 3c
       0.05744525 0.091626704 0.09093289 0.019905558
0002a0 99 9e a0 3d bb e5 a2 3d 0e b0 00 3d bb 86 38 be
       0.0784275 0.07953974 0.0314179 -0.18020146
0002b0 67 34 88 3c 40 e3 fd 3c c3 b3 15 be ae 47 d9 3d
       0.01662655 0.03099215 -0.14619355 0.10609375
0002c0 f4 39 97 3d 66 88 b3 3c 90 6b 74 bd f0 8b 6c bd
       0.073841006 0.021915626 -0.059672892 -0.057750642
0002d0 dc 86 a4 3d 19 2d 36 3e 70 f8 64 bd ce b3 13 3e
       0.08033535 0.17790641 -0.05590099 0.14424059
0002e0 57 a3 1d 3e 84 12 4f be 34 70 b4 3d e8 fa 4f 3e
       0.1539434 -0.20221907 0.088104635 0.20310557
0002f0 7a 42 d2 bd ba d5 08 3d 09 cd e7 3d f5 a2 8f 3b
       -0.10266586 0.03340695 0.11318404 0.0043834397
000300 c4 51 52 bd c5 8b ac bd 3a 1c e4 bd c5 42 aa bd
       -0.05134751 -0.084250964 -0.11138196 -0.083135165
000310 a5 b0 ce 3d 64 0c b9 bd 7f 23 e9 bd a1 62 46 bd
       0.10092286 -0.090355664 -0.113837235 -0.048433904
000320 60 f9 0b be 28 f7 05 3e 81 9e 99 bd ef 41 64 bc
       -0.13669348 0.13082564 -0.07500935 -0.013931735
000330 42 d7 50 bd 1a 04 48 3e 21 0f 26 3e 62 4e 84 bd
       -0.050986536 0.19532815 0.16216709 -0.06460263
000340 bf 60 9c 3d 22 af b6 bd 90 3d d4 3b 01 f7 3c 3d
       0.0763564 -0.08920123 0.0064770654 0.046134
000350 e3 cd 5c 3d ad 00 49 3e 2e 0a b1 bd e7 c8 1a 3e
       0.053907286 0.19629164 -0.0864452 0.151157
000360 0a 71 00 3e 27 72 af bd f1 fd f4 3d a9 f4 2d be
       0.12543121 -0.08566695 0.11962498 -0.16987862
000370 07 4a 2c 3d 13 b1 31 bd c1 81 c4 bd 6a bb 07 3d
       0.042062785 -0.04338176 -0.09595061 0.033137716
000380 0b 78 da bd 87 29 8b bc 5a a0 11 bd ab 6e 3b be
       -0.10667428 -0.016987575 -0.035553314 -0.18303935
000390 f8 7b 67 bd 76 c0 13 3d 06 60 05 3d da d7 4c bd
       -0.05651471 0.036072217 0.03256228 -0.05001054
0003a0 24 3f a2 bc 9c eb 2c be a6 60 59 bb 10 c8 83 3e
       -0.019805498 -0.16886753 -0.003316918 0.25738573
0003b0 0e c2 0f be cc 78 8e bd c7 f9 cc bd c6 62 ac 3d
       -0.1403887 -0.06956634 -0.10008579 0.08417277
0003c0 1b d2 8e 3c 6f 88 02 bd 49 00 b3 bd f8 7c 55 3d
       0.01743417 -0.031868394 -0.08740289 0.052121133
0003d0 7b de 0d 3e 0f ae 85 3d 99 d3 52 3d 5a 99 62 bd
       0.13854401 0.0652734 0.051471327 -0.05532203
0003e0 e5 8f bf bb 33 6d b0 3d 48 03 4c 3e f6 18 b9 3d
       -0.005846011 0.08614578 0.19923127 0.09037964
0003f0 52 4e 3e bd e8 a5 1d 3e 5d 9a 32 be 5f 34 11 3d
       -0.04646141 0.1539532 -0.17441697 0.035450336

output.bias f4 [5]
000000 31 3f e3 be 7c 2d e6 3b 76 ae ff 3d ba a4 c7 bc
       -0.4438415 0.007024465 0.12484448 -0.02437054
000010 ce ca 70 3d
       0.05878716
